…
BayesianNeuralNetwork Summary
********************************************************************************
Representative seed for plots/model export: 123
Evaluation seeds for reported metrics: [123, 124, 125, 126, 127, 128, 129, 130, 131, 132]
****************************************************************************
Model: "Bnn_CurieTemperature"
┏━━━━━━━━━━━━━━━━━━━━━━━━━━━━━━━━━┳━━━━━━━━━━━━━━━━━━━━━━━━┳━━━━━━━━━━━━━━━┓
┃ Layer (type)                    ┃ Output Shape           ┃       Param # ┃
┡━━━━━━━━━━━━━━━━━━━━━━━━━━━━━━━━━╇━━━━━━━━━━━━━━━━━━━━━━━━╇━━━━━━━━━━━━━━━┩
│ dense (Dense)                   │ (None, 128)            │        10,880 │
├─────────────────────────────────┼────────────────────────┼───────────────┤
│ dense_1 (Dense)                 │ (None, 128)            │        16,512 │
├─────────────────────────────────┼────────────────────────┼───────────────┤
│ dropout (Dropout)               │ (None, 128)            │             0 │
├─────────────────────────────────┼────────────────────────┼───────────────┤
│ dense_2 (Dense)                 │ (None, 128)            │        16,512 │
├─────────────────────────────────┼────────────────────────┼───────────────┤
│ dense_3 (Dense)                 │ (None, 128)            │        16,512 │
├─────────────────────────────────┼────────────────────────┼───────────────┤
│ dropout_1 (Dropout)             │ (None, 128)            │             0 │
├─────────────────────────────────┼────────────────────────┼───────────────┤
│ dense_4 (Dense)                 │ (None, 2)              │           258 │
└─────────────────────────────────┴────────────────────────┴───────────────┘
 Total params: 182,024 (711.03 KB)
 Trainable params: 60,674 (237.01 KB)
 Non-trainable params: 0 (0.00 B)
 Optimizer params: 121,350 (474.02 KB)


Layer Details:
 - Dense:   relu(128)
 - Dense:   tanh(128)
 - Dropout: 0.2
 - Dense:   relu(128)
 - Dense:   tanh(128)
 - Dropout: 0.2
 - Dense:   linear(2)
Optimizer: adam
…
